…
0.726     Total estimated model params size (MB)
50        Modules in train mode
0         Modules in eval mode
Using device: cpu
Read in bed file of 20512 peaks
Read in bed file of 16900 peaks
Successfully loaded in data with 14781 positive and 0 nonpeak regions!
Given config['out_pred_len'] = 1000, we need input_len = 3064 

Current sequence length is 3107
BPNetLightning(
  (eval_metrics): ModuleDict(
    (mse): MSELoss()
    (kl_divergence): KLDivergence()
    (explained_variance): ExplainedVariance()
    (cosine_similarity): CosineSimilarity()
    (mae): MeanAbsoluteError()
    (r2): R2Score()
  )
  (initial_conv): CNNModule(
    (conv): Conv1d(4, 64, kernel_size=(21,), stride=(1,))
    (activation): ReLU()
  )
  (dilated_convs): ModuleList(
    (0): DilatedConvModule(
      (conv): Conv1d(64, 64, kernel_size=(3,), stride=(1,), dilation=(2,))
      (activation): ReLU()
    )
    (1): DilatedConvModule(
      (conv): Conv1d(64, 64, kernel_size=(3,), stride=(1,), dilation=(4,))
      (activation): ReLU()
    )
    (2): DilatedConvModule(
      (conv): Conv1d(64, 64, kernel_size=(3,), stride=(1,), dilation=(8,))
      (activation): ReLU()
    )
    (3): DilatedConvModule(
      (conv): Conv1d(64, 64, kernel_size=(3,), stride=(1,), dilation=(16,))
      (activation): ReLU()
    )
    (4): DilatedConvModule(
      (conv): Conv1d(64, 64, kernel_size=(3,), stride=(1,), dilation=(32,))
      (activation): ReLU()
    )
    (5): DilatedConvModule(
      (conv): Conv1d(64, 64, kernel_size=(3,), stride=(1,), dilation=(64,))
      (activation): ReLU()
    )
    (6): DilatedConvModule(
      (conv): Conv1d(64, 64, kernel_size=(3,), stride=(1,), dilation=(128,))
      (activation): ReLU()
    )
    (7): DilatedConvModule(
      (conv): Conv1d(64, 64, kernel_size=(3,), stride=(1,), dilation=(256,))
      (activation): ReLU()
    )
    (8): DilatedConvModule(
      (conv): Conv1d(64, 64, kernel_size=(3,), stride=(1,), dilation=(512,))
      (activation): ReLU()
    )
  )
  (crop_layers): ModuleList(
    (0-8): 9 x Cropping1D()
  )
  (global_avg_pool): GlobalAvgPool1D()
  (count_dense): Linear(in_features=64, out_features=1000, bias=True)
)
Sanity Checking: |          | 0/? [00:00<?, ?it/s]Sanity Checking:   0%|          | 0/2 [00:00<?, ?it/s]Sanity Checking DataLoader 0:   0%|          | 0/2 [00:00<?, ?it/s][1;34mwandb[0m:
[1;34mwandb[0m: You can sync this run to the cloud by running:
[1;34mwandb[0m: [1mwandb sync ./wandb/offline-run-20241010_143009-wu9mpwx1[0m
Traceback (most recent call last):
…
