…
Read in bed file of 151351 regions
Read in bed file of 16900 regions
Loaded 151351 peak regions and 0 non-peak regions
Given config['out_pred_len'] = 750, we need input_len = 4860 

Current sequence length is 6000
BPNetLightning(
  (eval_metrics): ModuleDict(
    (weighted_mse): WeightedMSELoss()
    (weighted_norm_mse): WeightedMSELossNorm()
    (focused_mse): FocusedMSELoss()
    (mse): MSELoss()
    (kl_divergence): KLDivergence()
    (explained_variance): ExplainedVariance()
    (cosine_similarity): CosineSimilarity()
    (mae): MeanAbsoluteError()
    (r2): R2Score()
  )
  (initial_conv): CNNModule(
    (conv): Conv1d(4, 256, kernel_size=(15,), stride=(1,))
    (activation): ReLU()
  )
  (dilated_convs): ModuleList(
    (0): DilatedConvModule(
      (conv): Conv1d(256, 256, kernel_size=(2,), stride=(1,), dilation=(2,))
      (activation): ReLU()
    )
    (1): DilatedConvModule(
      (conv): Conv1d(256, 256, kernel_size=(2,), stride=(1,), dilation=(4,))
      (activation): ReLU()
    )
    (2): DilatedConvModule(
      (conv): Conv1d(256, 256, kernel_size=(2,), stride=(1,), dilation=(8,))
      (activation): ReLU()
    )
    (3): DilatedConvModule(
      (conv): Conv1d(256, 256, kernel_size=(2,), stride=(1,), dilation=(16,))
      (activation): ReLU()
    )
    (4): DilatedConvModule(
      (conv): Conv1d(256, 256, kernel_size=(2,), stride=(1,), dilation=(32,))
      (activation): ReLU()
    )
    (5): DilatedConvModule(
      (conv): Conv1d(256, 256, kernel_size=(2,), stride=(1,), dilation=(64,))
      (activation): ReLU()
    )
    (6): DilatedConvModule(
      (conv): Conv1d(256, 256, kernel_size=(2,), stride=(1,), dilation=(128,))
      (activation): ReLU()
    )
    (7): DilatedConvModule(
      (conv): Conv1d(256, 256, kernel_size=(2,), stride=(1,), dilation=(256,))
      (activation): ReLU()
    )
    (8): DilatedConvModule(
      (conv): Conv1d(256, 256, kernel_size=(2,), stride=(1,), dilation=(512,))
      (activation): ReLU()
    )
    (9): DilatedConvModule(
      (conv): Conv1d(256, 256, kernel_size=(2,), stride=(1,), dilation=(1024,))
      (activation): ReLU()
    )
    (10): DilatedConvModule(
      (conv): Conv1d(256, 256, kernel_size=(2,), stride=(1,), dilation=(2048,))
      (activation): ReLU()
    )
  )
  (crop_layers): ModuleList(
    (0-10): 11 x Cropping1D()
  )
  (global_avg_pool): GlobalAvgPool1D()
  (dropout): Dropout(p=0.1, inplace=False)
  (count_dense): Linear(in_features=256, out_features=750, bias=True)
)
Sanity Checking: |          | 0/? [00:00<?, ?it/s]Sanity Checking:   0%|          | 0/2 [00:00<?, ?it/s]Sanity Checking DataLoader 0:   0%|          | 0/2 [00:00<?, ?it/s]Sanity Checking DataLoader 0:  50%|█████     | 1/2 [00:05<00:05,  0.18it/s]Sanity Checking DataLoader 0: 100%|██████████| 2/2 [00:05<00:00,  0.36it/s]                         
…
